pytorch_codebase/lineardata_LSTMparams.pt (torch, 141436 bytes, 9 tensors)

enc_lstm.weight_ih_l0 f4 [256, 1]
00000000: 973f dbbd 8d42 8d3c 3b19 1e3c 39ee 453d
00000010: 05aa f4bc 6a1b d83d 0459 273e 96fb 253d
00000020: 0dea 49bd 995d dbbd fefd e5bd edd4 50bc
00000030: a86e 23bd 5bb1 17be 402a 403c a94f 733d
00000040: da11 353d 5760 e1bd 7dcb 9c3d 98d3 8abd
00000050: 6d8a 1e3e 8dd5 55bd ad5f 8f3d 79fd 153e
00000060: a6a5 50bd fe48 8f3d 6dd0 9e3d fecf ef3c
00000070: 1029 e7bd 402f 423c 67a5 b2bc 716c fabd
00000080: 2820 293d 5a7e a3bd db08 bf3b 546f c7bd
00000090: a139 10bc bddb a73d 09c0 bdbd 49e4 0b3d
000000a0: 69e7 eb3d f42c 02be b8c5 d7bd e581 38bd
000000b0: f6f4 bb3d 35b2 523d d729 61bd 1e39 4b3c
000000c0: 61c8 b63c 691b 06be 16db b1bd b199 303d
000000d0: b46d 0cbe d231 c7bd 3129 083d 9f27 ee3d
000000e0: 6d49 393d 53f1 5dba c045 9ebd 1c18 053d
000000f0: e96b ea3d 5e3b 253d 2638 99bd ec67 23be
00000100: 40ab 83bd 1d0f c6bd a2d2 4dbd 0724 00bc
00000110: b75b 92ba 1d96 26bd e4b7 9bbc c3b5 d63d
00000120: a767 dfbd 3f85 29be 0e7a bf3d 95b9 d9bd
00000130: 901d 043e 7108 313d 6eed 0c3d f1b4 033c
00000140: 0186 a53c a0a1 3fbe c49f 5fbd a1a9 063e
00000150: 1cb4 cb3d 7f89 02bb 72f5 113e 6b86 73bd
00000160: 2ff5 e2bc e7ca b6bc add9 2d3c c617 043a
00000170: 83fd 1bbe 9cae a6bc c252 573d 4a2b 36bd
00000180: 4499 d8bd e4fe 8d3d ddcb cabd ac17 3ebd
00000190: 36f3 e4bc 0fca 3c3e 47b6 9fbd 7616 d13d
000001a0: add7 e13d b39b db3c 3471 3bbd bd89 69bd
000001b0: fd28 3dbc e1d6 893c f170 27bd d17e 773d
000001c0: 70da bbbd 7b9a d2bd def1 b4bd a059 9e3c
000001d0: ca54 ae3a 76fd c4bc 8a65 1abe f9d6 4fbd
000001e0: b5ba 233e 58dd 87bd ad89 dc39 107a 193e
000001f0: e15a 42bd 38d6 21bd 6486 923d 7923 2a3d
00000200: 4cf5 023e 7f29 973d e406 023e f8b2 20be
00000210: c974 00bd d2a9 13bd 146e eebd b462 14be
00000220: a5b1 b73d 8325 4b3d a0ee 88bd 74f1 403c
00000230: eea5 9f3d ec29 2c3e 3693 c9bc 863c 133d
00000240: 0c95 113e aa82 3e3e 9cf0 62bd e5f1 2a3d
00000250: f216 c23d 274f c43d c80e ffbd bed0 92bd
00000260: fe70 893c 81f7 a3bd 638d 0abe f149 5d3c
00000270: c94c e9bd 4cf4 fe3d 0404 183e 9579 7a3d
00000280: 8ca8 0c3e 797b d43d ed77 d0bd 12a0 b63c
00000290: ecbf 2abe b4b0 ef3d 11ae 8bbc cf46 cfbd
000002a0: 0e9c a4bd eb3a 85bd 6991 80bd 433b 833d
000002b0: 20fa babc 462b c7bd 9c2c 213e ffd4 c83d
000002c0: 2060 883d 76cd 323d c812 223e e9f5 0c3d
000002d0: 14cc 53bc c859 ecbd a18a d8bc 86e7 4a3d
000002e0: 16a6 b1bd bcd0 643d 9401 e8bd 2c61 bb3d
000002f0: 87c1 99bd f31d 82bd d7e3 11be a18e 22be
00000300: d250 0e3d 4658 613d 7fb6 473d 5834 cf3c
00000310: 13d8 df3a 5af7 2fbe 8209 8a3d 426e 383d
00000320: ca17 03be 37fe 03be 0b53 c6bd 3229 40bd
00000330: 9953 eb3d dea2 9abc b6ba 1fbd 240e e13c
00000340: 9f6a 2c3d f847 72bd 84e7 853c 0424 e63c
00000350: f8ed 0e3d b7f6 4d3b c039 07bc 750d 263d
00000360: 4d41 0c3d 6ae4 ee3d f535 903d 2256 d83c
00000370: 0dde 8ebd 172b 3bbd 68c1 efbd 6db6 9c3c
00000380: ac38 a3bd ab41 22bd ff2c 60bd 0b53 033e
00000390: ab2c 763d 3abd c53d 2614 44be 1ee8 d9bd
000003a0: 183f 13be 165e b4bc e586 a9bd 49b7 12be
000003b0: a14f fa3d 1708 8c3c 5291 91bd c04b 1d3e
000003c0: 1077 f4bd a61c 543d 403b abbd df0a 1d3d
000003d0: c236 12be 2b2b 4c3d 4f54 25bd e461 f6bd
000003e0: b48f 2cba b382 8bbc 621b 1dbe e9d8 273e
000003f0: 8404 cb3d c994 4fbd ea90 7e3d 7fdf 1cbd
-0.10705488 0.017243648 0.00964957 0.04832289 -0.029866228 0.10552104 0.1634255 0.040523134
-0.049295474 -0.10711212 -0.11230086 -0.012746078 -0.039900452 -0.1481375 0.011728823 0.05940214
0.044206478 -0.110047035 0.07656 -0.067786396 0.15482493 -0.05220561 0.070006706 0.14647473
-0.050939225 0.06996344 0.07754598 0.029273983 -0.11287129 0.011852086 -0.021807386 -0.12227715
0.041290432 -0.07983084 0.005829913 -0.09738031 -0.008802802 0.081962086 -0.092651434 0.034153257
0.11518747 -0.12712461 -0.10535759 -0.045045752 0.09177582 0.051439483 -0.054971542 0.0124037545
0.022312345 -0.13096394 -0.086843655 0.04311532 -0.13713723 -0.09726299 0.03324241 0.11628651
0.04523604 -0.0008466441 -0.077281475 0.032493696 0.114463635 0.04033982 -0.074814126 -0.15957612
-0.06429148 -0.096708514 -0.050249703 -0.00782109 -0.0011166249 -0.040670503 -0.019008584 0.10483887
-0.10908442 -0.16554736 0.09349452 -0.106311 0.12901902 0.04322094 0.034406118 0.008038745
0.0202055 -0.18713999 -0.054595724 0.13150646 0.099464625 -0.001991838 0.14253786 -0.059454363
-0.027704803 -0.022313548 0.01061098 0.0005038943 -0.15233426 -0.020346932 0.05256916 -0.044474877
-0.10576108 0.06933382 -0.09902165 -0.046409294 -0.027948003 0.18436454 -0.077984385 0.10209362
0.11027465 0.026807642 -0.045762256 -0.057016123 -0.011545417 0.016826095 -0.040879194 0.060423676
-0.09172523 -0.10283371 -0.08835195 0.019329846 0.0013300416 -0.02404664 -0.15077797 -0.050742123
0.15989192 -0.06634015 0.00042064246 0.1498797 -0.04744995 -0.039510936 0.07154539 0.041537736
0.12788886 0.073809616 0.12697941 -0.15693271 -0.031361375 -0.036050625 -0.116420895 -0.14490777
0.0896943 0.04959632 -0.06686139 0.011776317 0.077953205 0.16812867 -0.024606328 0.03594639
0.14217013 0.18604532 -0.055405244 0.041734595 0.09477033 0.095854096 -0.12453991 -0.07168721
0.016777512 -0.08006192 -0.13530497 0.013506399 -0.11391599 0.1244894 0.14845282 0.061151106
0.1373617 0.10375113 -0.10179124 0.022293124 -0.16674775 0.11703625 -0.017050775 -0.101209275
-0.080375776 -0.06505378 -0.06277735 0.06407788 -0.022824347 -0.09725051 0.15739673 0.09806251
0.066589594 0.043652974 0.15827477 0.034414206 -0.012927074 -0.11540562 -0.02643329 0.049537204
-0.086742565 0.055863127 -0.11328426 0.091493934 -0.075076155 -0.063533686 -0.1424707 -0.15874721
0.034745045 0.055015825 0.048758026 0.025293514 0.0017077945 -0.17184201 0.06740095 0.045027025
-0.12802044 -0.12889944 -0.09683808 -0.046914287 0.11490554 -0.01887649 -0.03899642 0.027472563
0.04209387 -0.059150666 0.016345747 0.028093345 0.034894913 0.003142757 -0.008253515 0.040540177
0.034241963 0.1166466 0.070415415 0.026408259 -0.069759466 -0.04569539 -0.11706811 0.019129956
-0.07969794 -0.039613407 -0.05473041 0.12824647 0.060101192 0.09655233 -0.19148311 -0.10639976
-0.14379537 -0.02201752 -0.08277682 -0.1432773 0.12222219 0.017093701 -0.07107796 0.15360928
-0.11936772 0.051785134 -0.083609104 0.038340446 -0.14278701 0.049845856 -0.040363606 -0.1203039
-0.0006582693 -0.017030096 -0.15342477 0.16391338 0.09912971 -0.050679002 0.06214992 -0.03829908

enc_lstm.weight_hh_l0 f4 [256, 64]
00000000: ed29 b2bd 4be8 803c 0734 d03d 8efe af3b
00000010: bd38 883d 00b5 3eb3 8490 5d3d bcaa 96bd
00000020: 033e efbd aa2b 9f3d dcfc 743d 4d65 143c
00000030: 328e 093d 0c80 553d 49e8 d53c 597e 0f3e
00000040: 0940 58bd 4bc2 adbd a0b8 10be ceed d4bd
00000050: 7097 ca3c cced 563b 310d eb3d 95d8 4c3d
00000060: b86f ea3c 3e79 d43d 04a7 aebd e1cd a23d
00000070: d7e8 1c3e 6183 003d d4fe 74bd c214 4d3d
00000080: 090d b0bd cdce 173c ace7 323d 5026 f6bd
00000090: 41be 613d 8cf3 153d 8d19 8ebb 9b97 89bd
000000a0: f9f9 d9bb 6151 afbd fd03 8e3d b1dd adbd
000000b0: e2a1 86bd cd8d 48bd 96fb 9e3d 71de 9dbd
000000c0: ab98 b0bd b2bc 8dbd befc 103d 5daa 033e
000000d0: 81a4 94bd 2e59 a73d 22f2 1f3d 5e18 0c3e
000000e0: 1706 00be 5894 a23c 77d3 7e3c 756f c7bd
000000f0: f38c e23c 66e9 1c3d 872e 09bd 78d5 5abd
00000100: 6049 a7bd 0bc9 78bd 1347 44bd e38f fd3d
00000110: baeb 1a3e e1de 84bd ba8b 99bd ead4 adbb
00000120: d696 e6bd ed0e e1bc 71f9 46bd d5eb 09be
00000130: 170b f63d f3f4 04be c02e 173e 0fd3 a23c
00000140: f4fb 2cbe e70e 21be 55e8 593d e306 4a3b
00000150: 3732 ccbd 2169 ea3d 204b c93d 31d5 fa3c
00000160: f806 86bd 4895 bfbd 5186 4e3d 2d70 bcbd
00000170: 4b39 10b9 5915 4cbc a457 08be fe61 e8bd
00000180: a82f 17be 1de5 33be 7bf9 ca3d c690 903c
00000190: e712 0dbd d6fd ddbd c713 a53d 0334 cd3d
000001a0: d4c5 5fbd 476d d53d d06f 1a3e 7828 873c
000001b0: 0c83 46bc 8930 0b3d 8e5c 30be 9a27 bdbd
000001c0: 2a63 b2bd 129f e03c e242 febd a897 eebb
000001d0: f75e a7bd 0325 d43c 3545 ddbc 3e3a 093c
000001e0: 21a5 0ebd 972d 03be ae0c 173e 082a 21bd
000001f0: 48bc 43bd 36e1 dfbd efc9 0d3e 81b2 c33d
00000200: d621 293d d982 c5bc b10f 4a3d a953 debd
00000210: f495 7b3d 9276 f1bd 49e6 c8bd dfc0 c93d
00000220: 249c 203d 3f14 ee3d bdad 15bd 5707 c53c
00000230: 0870 e3bd f5d6 aabb c51f 8d3c 12d4 b83d
00000240: 3c6d c0bd 237c fabd d765 95bc 2fc8 b7bd
00000250: dfae e2bd 7ec6 0cbd b72e 9e3d 470a d9bd
00000260: 5d80 a6bd ee79 de3b e788 adbd eb3f 8d3d
00000270: c356 ed3d 38cf b3bd 6a65 893d 07e7 a23d
00000280: 1426 da3d b664 a2bb 734f cdbd e25d 873d
00000290: 4ca6 e7bd 7105 d7bd 4c69 063b 42ed b83d
000002a0: 00c7 01be 88b5 e33c 5d4f afbd 5f86 e43c
000002b0: a5f1 24bd 2d11 65bd 5659 31bd 2539 7ebd
000002c0: d3ac 37bd a3b2 5dbd d733 523c 8ed8 a63d
000002d0: 5d77 033c ccf2 3bbd 9e51 d1bc 093b 40bd
000002e0: 76b9 eebd e846 0bbe 884b c93d 8bae a1bc
000002f0: 7967 bdbd dbd1 4bbd d086 313c de16 013d
00000300: 1159 14bc cee8 84bc 332e eabd 7c07 4bbc
00000310: 74f5 2d3e 2475 ee3c c563 0c3d 91dd 9dbc
00000320: 9fb4 3dbe 8985 bbbc 8a0a 90bd f0dc 84bc
00000330: b6dd 293e d1cd ba3b c45e 763d 2b8c 39bd
00000340: cb6e a1bd 7830 6bbd 18df 263e e7a6 54bd
00000350: 8b94 013e 4570 e23d 5569 573b 0e29 a83d
00000360: 947f c2bd d1e8 80bd 8bc6 f0bd 01f0 7b3d
00000370: 18e2 0e3e 48c2 7dbd 3152 f7bc 7e45 1ebe
00000380: 3bc5 f53b 16b7 7a3c 7436 2f3c 53df 33bd
00000390: ee49 c0bd c71a c1bb 5a72 bd3d 1ac1 b83d
000003a0: 26ce 663c af6b c63d d448 063e 26a9 d5bb
000003b0: 5fdb 2bbe 631c 383e 3c51 e5bd a4a4 e6bd
000003c0: d99f febd 17d1 07bd 8cbe b5bd 2609 543d
000003d0: 79be 9bbd 2923 a83c d77b 02be f1b7 aabd
000003e0: 1e62 3d3d 93b6 1fbe c704 9d3d 7cdb a8bd
000003f0: 76b2 3bbc 2799 9bbc 30d0 26bd 3938 d63a
-0.08699403 0.015735766 0.101661734 0.0053709215 0.06651447 -4.440244e-08 0.0540929 -0.07356784
-0.1168175 0.07772 0.059811458 0.009057355 0.033582874 0.05212407 0.026111739 0.14013042
-0.052795444 -0.08484324 -0.14132929 -0.1039692 0.024730414 0.0032795547 0.114771254 0.050011236
0.028617725 0.103746876 -0.085279495 0.079494245 0.15323196 0.031375293 -0.059813336 0.050068624
-0.08596236 0.009265614 0.04367797 -0.12019026 0.05511308 0.036609218 -0.004336542 -0.067183696
-0.0066521135 -0.08560444 0.069343545 -0.0848955 -0.065738454 -0.048963357 0.0776283 -0.07708443
-0.08622869 -0.069207564 0.035397284 0.12857957 -0.07257939 0.081713066 0.039049275 0.1368117
-0.12502323 0.019846126 0.015553347 -0.097380556 0.0276551 0.038308524 -0.033491638 -0.053426236
-0.08168292 -0.060738605 -0.047919344 0.1238096 0.15128985 -0.06487823 -0.07497354 -0.0053049223
-0.112592384 -0.027472937 -0.04857773 -0.13468869 0.12013834 -0.12984066 0.14763927 0.019876031
-0.16892987 -0.15728341 0.053200085 0.0030826859 -0.09970515 0.11445833 0.09828782 0.030619236
-0.06544298 -0.09354645 0.050421063 -0.09201083 -0.00013754253 -0.012456262 -0.13314682 -0.113468155
-0.14764273 -0.17567869 0.09910866 0.017647158 -0.034441855 -0.10839431 0.08060413 0.10019686
-0.054632023 0.104212336 0.15081716 0.01649879 -0.012116205 0.033981834 -0.17222807 -0.09236069
-0.0871032 0.0274196 -0.12415101 -0.0072812624 -0.0817241 0.025896555 -0.02701054 0.008375702
-0.034825448 -0.1281036 0.1475093 -0.039346725 -0.04778698 -0.109316275 0.13846563 0.09555531
0.041292034 -0.024110245 0.04933137 -0.10855801 0.061422303 -0.117901936 -0.098095484 0.0985124
0.039211407 0.116249554 -0.036542643 0.024051351 -0.11105353 -0.005213613 0.017227063 0.09024824
-0.09395835 -0.122307085 -0.018237038 -0.08973729 -0.1106851 -0.034368984 0.07723754 -0.105976634
-0.08129952 0.0067894375 -0.08473378 0.06896957 0.11588814 -0.08779758 0.06708796 0.07954221
0.10651794 -0.0049558533 -0.10024919 0.066097036 -0.113110155 -0.10499085 0.002050954 0.09029628
-0.12673569 0.027796522 -0.08560059 0.027896104 -0.040269513 -0.055924583 -0.043298088 -0.062066216
-0.044842552 -0.05412544 0.012829742 0.08146773 0.008024064 -0.045885846 -0.025551613 -0.0469313
-0.116564676 -0.13601267 0.098288596 -0.019736549 -0.092482515 -0.04976068 0.010835364 0.03151595
-0.009054438 -0.016224291 -0.11434593 -0.012391921 0.16988164 0.029108591 0.034274835 -0.01927069
-0.18525933 -0.022890823 -0.0703326 -0.016218632 0.16588482 0.0057008048 0.06014897 -0.04529969
-0.0788246 -0.05741927 0.16296041 -0.051916983 0.12654321 0.1105657 0.003286918 0.082109556
-0.0949699 -0.06294406 -0.11756619 0.061508182 0.13953435 -0.06195286 -0.03019056 -0.15456197
0.0075003183 0.01530244 0.010694135 -0.04391415 -0.09389101 -0.0058930847 0.092503265 0.09021206
0.014087236 0.09688508 0.13113719 -0.006520408 -0.16782902 0.17979579 -0.11197135 -0.112618715
-0.12432832 -0.033158388 -0.088742346 0.051766537 -0.07604689 0.020524578 -0.12742554 -0.08335865
0.04623615 -0.1559699 0.07666927 -0.08244988 -0.011456123 -0.018993927 -0.040725887 0.001634366

enc_lstm.bias_ih_l0 f4 [256]
00000000: 1401 1a3e d34d 973d 015c b3bb ae54 273e
00000010: 129c 88bd 16b2 583d f808 ccbc 1c59 323e
00000020: c62e 69bd 9854 2fbc c9b9 d33d 9d9e 00be
00000030: c4ed f83d feed 0d3c d194 9f3d ce9c 2abd
00000040: 70dd 133e 992c 35bd 0039 ae3d 3be3 c03c
00000050: 6e71 f83d fdac 06bd 3c35 973d d5e1 ffbc
00000060: 6930 a73d cae1 cc3d 3744 643d a2fb b53d
00000070: 3f4d 013e 6a45 203d ab1e ff3d c4a0 bf3d
00000080: 348e 183e 7f99 3d3c 1a72 5a3d f71e 563d
00000090: 08c9 b2bc 8e3a d13d b7a0 a1bc 4707 b33d
000000a0: d1fc 7e3c 10d6 08be e6f0 a83c 7d34 5f3d
000000b0: e659 8ebd b4f8 2a3e 0740 173d 2c1b e93b
000000c0: e61f ec3d a95e a5bc 4b1d 2b3e 1747 dabd
000000d0: 536b fa3c 0d91 1a3e ad3a 31be 579f 8dbd
000000e0: 14e0 f43c cd17 3abd 5e37 fe3d 426a 2a3d
000000f0: f334 f83d 9017 153e a64f d13d 4104 373d
00000100: 01ba 143c 5999 c73d dc20 06be 2937 9a3c
00000110: af7c 563d 25b6 003d 7c91 aebc 9c62 8cbd
00000120: 1a66 043e 208b 5bbd 049d 51bd bc8b 8f3d
00000130: a7b2 063e 3370 3abd 8d41 243e 89c2 0e3e
00000140: 1461 f93d 849c d4bc 69d1 d2bc 0f89 e5bd
00000150: 642e 253e 2d01 913d d193 ba3d 33a7 10be
00000160: 9d92 f83d 2a3c 27bd 990f 82bd 5cce dd3d
00000170: 5715 fa3d 3834 dd3c a6bc f93d ccbb a63b
00000180: 2bca 143e 57d3 50bb d892 d73d 7aef d1bc
00000190: a7eb 173e 25b4 403d 5455 14bd 8814 933d
000001a0: 2507 a1bd 415a 92bd 652f 423d bdd0 9abd
000001b0: 7222 4abd 99cf aabd 6b35 14bd 743b 833c
000001c0: b965 c1bc 2d32 48bd 19fd f53d 75d6 423c
000001d0: 39bf 7d3c 0e55 003e 9ae1 ebbc f448 a33c
000001e0: 2ffd 17bd fa7c c0bc caa3 373d 2943 b43c
000001f0: af26 bf3d 4cfc 8c3d 0fe5 8d3c bb97 e13d
00000200: 5911 58bd 6e08 33be ba26 fd3c a08c 473d
00000210: ceb3 f33b 4cd2 063e de4a dcbd f72c e33b
00000220: 2130 9abd 3c91 d8bd 1649 72bd cde8 c3bd
00000230: 3620 da3d fe66 673c 5b7b 8f3d e786 4ebd
00000240: b2a6 b0bd 2d00 3fbc 7a0f f5bd d02a d1bd
00000250: 0a7c c73d faf7 85bd cd52 2c3d 763c edbb
00000260: c25b e23a 4ded bdbd 6d47 e9bd d223 00bd
00000270: 3fd2 1a3e d15e 8fbd 6ac8 f0bc 5adc 0dbd
00000280: 9b68 c6bc fe04 e1bd 7f59 b63d d5e8 01be
00000290: eadb 76bd e77f 8e3d 692e aabd f524 263c
000002a0: e237 103c 657c 423d e406 183d a00a 13bd
000002b0: 6d80 86bd 3d26 bb3d f06d 08be dd33 d33d
000002c0: e825 d1bd 6ab1 d1bc 97a0 103d 2e3c f03d
000002d0: 542a 9abc c9c3 dc3d ed72 933d 33a8 60bd
000002e0: 601e b03d 7c8c 01be 1028 3a35 9dfa 42bd
000002f0: e4e1 2dbd 23eb 1bbe cb7f 1d3d 27a4 8d3d
00000300: 5f1e 0a3e b9bf 1e3e 8ba9 bd3d e815 0f3e
00000310: 9ac8 81bd 6c34 193e ea72 a13d ab0e 113d
00000320: fcf1 acbd a864 b63d 3263 073e 870e 993d
00000330: 2303 a33d 9b0f 193d 072a 3bbd df5d cd3d
00000340: 4b02 b3bd f1d5 9abc fcf2 f0bb 5a6f 4c3d
00000350: cf0c 933d 1112 a73d b14f e03d f8a9 84bd
00000360: 61ec 54bd 7e1b 833d ad1e a73d ed52 bb3d
00000370: 9234 2a3e 415b 90bc fac0 9f3c faea a73d
00000380: e32b bf3d 13e7 8bbd 52a5 e83d c0f5 35bc
00000390: ee9a 193e b94e 703b 6b96 e0bd 65e6 b03d
000003a0: 1fb1 e4bd 2053 8b3d 93ad 0d3e 8104 c93d
000003b0: 3871 173e 8f46 503c 461d 0a3d 4a34 853d
000003c0: 8bf7 b13d 8f5e 4fbb 9642 98bc 182a b6bc
000003d0: e888 2bbd b747 183e 9938 f8bd c997 2c3c
000003e0: d3f4 59bd 2253 0f3e 4149 a0bd 7e2d d2bd
000003f0: e953 bdba 73b7 273e 50fb 373d 7650 aa3d
0.15039474 0.07387891 -0.005473614 0.16340896 -0.06670393 0.05290421 -0.02490662 0.17416805
-0.056929372 -0.010701321 0.1033817 -0.12560506 0.12154725 0.008662699 0.07792056 -0.041653447
0.1443994 -0.044231985 0.08506966 0.023545852 0.1213101 -0.03287982 0.073832005 -0.031235615
0.081635304 0.10004003 0.055729117 0.08885886 0.12627123 0.0391287 0.12457021 0.093568355
0.14897996 0.011572241 0.053331472 0.052275624 -0.021824375 0.102162465 -0.019729955 0.087416224
0.015563206 -0.13362908 0.020622682 0.054493416 -0.069507405 0.16696435 0.036926296 0.007113835
0.11529522 -0.020186739 0.16710393 -0.106580906 0.030568754 0.15094395 -0.1730754 -0.06915157
0.029892005 -0.045432854 0.12412904 0.04160524 0.12119474 0.1455977 0.1022027 0.04468179
0.00907755 0.097460456 -0.13098472 0.01882513 0.052365 0.031423707 -0.021309607 -0.06854746
0.12929574 -0.053599477 -0.051175132 0.07009074 0.13154088 -0.045517158 0.1604063 0.13941397
0.12176719 -0.025953539 -0.02573462 -0.112077825 0.16130978 0.070803024 0.09110225 -0.14126281
0.12137339 -0.04082886 -0.06350631 0.108303756 0.122111015 0.027002439 0.12194185 0.005088305
0.14530246 -0.003186425 0.10526055 -0.025626887 0.14835988 0.0470468 -0.036214188 0.071816504
-0.07862691 -0.07146121 0.04740848 -0.07559345 -0.049349256 -0.08340377 -0.036183756 0.01601956
-0.023608075 -0.048875976 0.12011165 0.011891951 0.015487486 0.12532446 -0.028794099 0.019932248
-0.03710669 -0.023497093 0.044833936 0.02200468 0.0933355 0.06884059 0.017321138 0.110152684
-0.05275092 -0.17483684 0.030902255 0.048718095 0.007437206 0.1316616 -0.10756467 0.0069328505
-0.07528711 -0.10574576 -0.05915173 -0.095658876 0.10650675 0.014123676 0.0700595 -0.05042162
-0.086255446 -0.011657757 -0.119658425 -0.10213244 0.097404554 -0.065414384 0.042071152 -0.0072398735
0.0017269778 -0.09273777 -0.113905765 -0.03128416 0.15119265 -0.07000507 -0.02939244 -0.03463397
-0.024219802 -0.1098728 0.08903789 -0.12686475 -0.06026832 0.06957989 -0.08309633 0.010140647
0.008802386 0.047481913 0.037115946 -0.035898805 -0.06567464 0.09138153 -0.13323188 0.103126265
-0.10212308 -0.025597293 0.0353094 0.11730228 -0.018819012 0.107795306 0.07199655 -0.054847907
0.085995436 -0.12651247 6.93487e-07 -0.047602285 -0.042451754 -0.15226416 0.03845195 0.06916075
0.13488148 0.15502824 0.092608534 0.139732 -0.0633709 0.14961404 0.07883246 0.03541438
-0.08444592 0.089059174 0.13221434 0.07473474 0.07959583 0.0373684 -0.045694377 0.1002767
-0.08740672 -0.018900843 -0.0073531847 0.04991088 0.071801774 0.08157743 0.109527 -0.064777315
-0.05198324 0.06401728 0.08160148 0.09146676 0.16621616 -0.017621638 0.019501198 0.08199115
0.093345426 -0.06831183 0.11359657 -0.011105955 0.15000507 0.0036668016 -0.1096619 0.08637694
-0.11166596 0.06802964 0.13835745 0.09815312 0.14789283 0.012712135 0.033719324 0.06504114
0.08689793 -0.0031642055 -0.018586438 -0.022236869 -0.04187861 0.14871107 -0.1212017 0.010534235
-0.053212 0.13996556 -0.07826472 -0.10262583 -0.0014444563 0.16378574 0.044917405 0.08316128

enc_lstm.bias_hh_l0 f4 [256]
00000000: becb 5ebd 4048 373d 8993 e83d b9b2 b53d
00000010: 99b1 023d 17cf 84bc c923 2e3c 5522 173d
00000020: f8c6 903d cac7 b13c 9364 163e 6f0e 8a3c
00000030: 3a7a fabc 9f8a 76ba 0b9d db3d 968e ae3d
00000040: 5597 033e 3432 153e b4a0 083e fe63 25be
00000050: b3e7 99bd 54fd 113e f984 1d3e ccf6 83bd
00000060: a9c7 9a3d ff2a a03d e33c a13d 36e0 8abc
00000070: 5ba5 743d 6627 fa3c 78d9 033d be13 993c
00000080: 7974 df3c 4c1f 7d3d ea09 94bd d546 b73c
00000090: fdb4 f63d a4b2 153e 5758 473d 6787 b43d
000000a0: 3704 4f3d 4087 eebd d69d 683c 024b c2bd
000000b0: 79c6 973d 14f2 eabc b08f 7d3d 50c0 803d
000000c0: 6326 b43d 48bb 94bc abc7 68bd 5f14 c23d
000000d0: 2a65 11be e7ee 24bd 307e 683c 90fb 0e3d
000000e0: dba0 1a3d 6ff4 993d a722 343e abc9 8c3d
000000f0: 335e 8dbd 5c3f d03d c2e3 943d f779 1f3d
00000100: 1620 e33b 30ad 193e f38a c2bd f6f9 203e
00000110: af1c ce3d cd45 3fbd 96dd bd3d 4268 d43c
00000120: ea64 42bd 92da ecbb 63fb 273e f2b4 c3bd
00000130: 122f 113e 4311 803d d1b3 96bc ded9 d5bd
00000140: 7499 163a c640 653b fd53 10bd 2b42 093d
00000150: 2cf4 be3d a13a 2c3e 8dd4 ce3d a7c6 c9bd
00000160: 06f8 443d 4d34 45bd cb0f 8abd a251 c63d
00000170: 1433 2c3e 685b bf3d 1ba2 ae3d 8339 903d
00000180: 575b 033e 4657 92bd 12e1 7e3d 204c c73c
00000190: 4654 8d3c a31b 54bd 73cf e8bc 215e bfbd
000001a0: 5e63 3d3d aa02 e8bd 8f30 013e e8ae 1fbd
000001b0: 960b f0bd f76f d33d 4a3a c6bc e6d3 8dbd
000001c0: 74c0 6ebc dba7 6fbd 960b bc3c 5e82 28bc
000001d0: f343 a83c 9e42 873d d9f4 24be 4698 e3bd
000001e0: fb82 033e 4cb8 ca3d 2d8f a8bd fd0b 57bd
000001f0: d5eb 48bd ab09 30bd b0f1 8a3d ca10 623d
00000200: b44a 8d3b a024 9fbb 057b 893c 9ac3 c13d
00000210: ef9b 983d 3a41 ba3d 410d 8abd 9416 e4bd
00000220: c482 28be 427f ddbd 04df e93d d531 aabd
00000230: 220c a03d 796f b5bd af06 2c3e 64fe 24bd
00000240: 2419 9abd 6354 04be 01b9 c23d 701e f23d
00000250: 06d1 66ba 6252 893d f946 07be 25cf 823c
00000260: 2b27 d63d 63dd 2ebd 10f3 72bd d78a b7bd
00000270: ddb7 b73c 2211 903d 43f7 70bc f28d bfbd
00000280: 4ef6 d9bd a0c2 fcbd 6999 41bd ebd0 913d
00000290: 4084 843d ae0f fa3c 96fe 89bd 8000 cc3d
000002a0: 99e5 c93c 2fe2 23bd 1fb8 1e3e 0c97 31bd
000002b0: d612 bfbd 91fe 063e 5de6 81bd ec6d d6bd
000002c0: c889 8d3c 707e ad3d 92d4 38bd 761b 0b3d
000002d0: 46eb d5b9 c280 48bc 6530 d9bd 470c b1bc
000002e0: 8c9e 6a3c d433 6a3d 3e4a 073e 1d90 a63d
000002f0: 5e0c 87bd 9b65 323b e84c 04bd 97c7 0a3e
00000300: 97fd 003e 17bd ecbc 8854 943c b269 893d
00000310: 2add 203d 4862 993c 659c b13d cf2a 17bc
00000320: e82c cdbc e81f 6ebc fe8c 87bd 7fd0 823d
00000330: b7f0 443d b23b 48bd c435 0bbd 5350 033e
00000340: 5200 aabc bf23 f83b 458e 963d f3f6 833d
00000350: 9a32 163e 051b 0f3e 28eb 4bbd 8c8d 0b3e
00000360: 919e 5abd 70f1 133e 5574 9f3d a643 bbbd
00000370: f75b be3c 3e8d 0b3e 2ac6 9fbc 844d d83d
00000380: f0cc a6bd f2c7 fc3c 9a3a a9bd 13a4 e5bd
00000390: 70d5 c93d 3d69 783d 62fa 85bb 2503 d13d
000003a0: aa31 d2bd 417a 033d e97a 5fbd 80c7 983d
000003b0: 69e4 113e 730c 393e d725 98bc cf7a cabc
000003c0: 42de 053e 5200 9bbd acec 3abd 0dd7 1e3e
000003d0: 305a 11bd 1367 dfbc 8d5c f8bc 26cf 0d3e
000003e0: 928c 063e 6f33 2bbc 749e 19bd 8f3f 993d
000003f0: 9d98 00bc 5390 553d 2b4b d0bd 475a bebc
-0.054393522 0.044746637 0.11356265 0.08871979 0.03190765 -0.01621203 0.010628649 0.036897976
0.070692 0.021701712 0.14686804 0.016852586 -0.03057586 -0.00094048114 0.10723313 0.0852329
0.12850697 0.14569932 0.13342553 -0.16151425 -0.07514896 0.14256793 0.15382756 -0.06443557
0.075576134 0.07820701 0.07872941 -0.016952615 0.059728008 0.030536365 0.032189816 0.018686172
0.027277218 0.061797425 -0.072284535 0.022372643 0.120462395 0.14618927 0.04866823 0.088148884
0.05054113 -0.11646891 0.014197787 -0.09486963 0.074109025 -0.028679885 0.06190461 0.06286681
0.08796384 -0.018155709 -0.056831043 0.09476542 -0.14198747 -0.040266898 0.014190242 0.034907877
0.03775106 0.07517325 0.17591344 0.068744026 -0.06902733 0.10168335 0.07270004 0.038934674
0.006931315 0.15007472 -0.09499159 0.15720353 0.10064065 -0.046697427 0.0927078 0.02592862
-0.04745952 -0.007228204 0.1640449 -0.09555997 0.14178112 0.062532924 -0.01839629 -0.104419455
0.0005744912 0.0034981235 -0.035236347 0.03351037 0.09323916 0.1681924 0.100991346 -0.09852343
0.048088096 -0.04814558 -0.067412935 0.09683539 0.1681636 0.09343606 0.08527013 0.070422195
0.12827812 -0.07145552 0.062226363 0.024328291 0.017252099 -0.05178417 -0.028419232 -0.093441255
0.046237342 -0.11328633 0.1261618 -0.038985163 -0.1172096 0.1032409 -0.024197716 -0.06925182
-0.014572252 -0.05850969 0.022954743 -0.010284988 0.020540213 0.06604503 -0.16109027 -0.11113028
0.12842934 0.09898433 -0.082304336 -0.052501667 -0.049053032 -0.04297797 0.067843795 0.055191793
0.004311884 -0.004856661 0.016782293 0.09461136 0.07451617 0.09094472 -0.06740809 -0.11137119
-0.16456133 -0.10815288 0.1141949 -0.08310286 0.07814814 -0.08859152 0.16799425 -0.04028167
-0.075243264 -0.12922816 0.09507943 0.11822212 -0.00088049506 0.067051664 -0.13210668 0.015967915
0.104566894 -0.0426916 -0.059313834 -0.089620285 0.02242654 0.07034518 -0.014707389 -0.09353246
-0.10642682 -0.12341809 -0.047265444 0.07119926 0.06470537 0.030525055 -0.067380115 0.09961033
0.024645614 -0.040010627 0.15499924 -0.04335694 -0.093297645 0.13183047 -0.063427664 -0.10470185
0.017277613 0.08471382 -0.045124598 0.033961736 -0.00040801818 -0.0122377295 -0.10604934 -0.0216123
0.014320027 0.057178333 0.13211915 0.08132956 -0.06594156 0.0027221206 -0.032299906 0.135527
0.12596737 -0.028898759 0.018106714 0.06709613 0.03927342 0.018723622 0.08672408 -0.009226515
-0.025045827 -0.014533974 -0.06618689 0.06387424 0.048081126 -0.048885055 -0.03398682 0.1282361
-0.020752106 0.0075726206 0.073513545 0.06443586 0.1466774 0.13975151 -0.04978481 0.13628215
-0.053373877 0.1444757 0.077858604 -0.09143762 0.023237212 0.13628098 -0.019503672 0.1056166
-0.081445575 0.03085706 -0.082631305 -0.11212935 0.09855163 0.060647238 -0.004088686 0.10205678
-0.10263379 0.032099012 -0.054560576 0.074599266 0.14247288 0.18071155 -0.018572731 -0.024716763
0.13073066 -0.075684205 -0.045635864 0.15511723 -0.0354864 -0.02727083 -0.03031757 0.13848552
0.13139561 -0.010449274 -0.03750463 0.07482826 -0.007848886 0.05213959 -0.10170587 -0.023236407

dec_lstm.weight_ih_l0 f4 [256, 1]
00000000: ecf9 3abd 21e3 cebd d39b 7fbc a908 16bc
00000010: 8603 963d 478a 193e de40 ab3b 057d 78bc
00000020: 3a79 2e3d ca27 4a3d 7035 eb3d 29cc f4bb
00000030: 7a2e db3c 92b9 0bbe 4471 203e 9d42 563d
00000040: e11d c5bb 0bc5 203e 9cd3 b2bb 089e d9bc
00000050: 51ca d63d 913c 34bc db3f f2bd 4421 0cbd
00000060: 3d19 08be 94c4 023d f511 853d 4382 b1bd
00000070: e21d 213b f4b4 ad3c 1f10 2e3d 06cb 04be
00000080: d1ae 15b7 b5d2 5fbd bb13 2b3d fb17 923d
00000090: 3102 a6bc 7a9a 053c 9753 cabd fbf0 d4bd
000000a0: 98c1 fdbd 7803 a03b bfd8 d6bd d404 063e
000000b0: 8376 a73d 4f4a ea3d 81bc 7bbd 6bba d23d
000000c0: 2598 9fbd 24dd d7bd 73c4 0b3d 6c84 91bd
000000d0: 41cc 34be 42a1 44bd 28eb dc3d 4837 3e3c
000000e0: 679e 943d ad5d 96bc c501 843d c05b 363d
000000f0: ea29 da3c 5ca2 853d ec3c 11be 1e50 65bd
00000100: 6283 903d 6481 07be af6a 2f3d 48ed 0a3c
00000110: 1a61 28bc 38fe e03d 5db3 f3ba 2422 fd3d
00000120: 4c16 893d 7db2 353c 9e18 5ebd 718b c6ba
00000130: 2726 86bc c91f edbd 2b60 153e bb03 febc
00000140: c61c 833d ee76 8f3d 71b1 3d3b 5f80 e03d
00000150: e707 753d 1d96 4f3d 0cce 363d 14da 38be
00000160: d667 b5bd c7cc 32bd ac14 133d ffa7 dbbd
00000170: e553 68bd 3744 233e 627f 90bc a5b3 7b3d
00000180: a9cd 9dbd 9acb 31be 24e6 a63d fedf b5bd
00000190: b11b 723d ed6a 163e 1098 d6bc a717 c5bd
000001a0: ca88 eabd c5ee 2b3d bcdc 04be 8495 d83d
000001b0: 0c35 4ebb fcb5 d13d 9373 ccbd 8ec5 d23c
000001c0: ed53 3abd bcf1 60bd 5a3a 89bd 09f9 7c3d
000001d0: 6e3d d0bc a65a 893d b969 db3c 8de3 9fbd
000001e0: 9a4d 1abd 4cc4 303e 7498 29be 22b5 bcbd
000001f0: 2ae1 b63d 82b0 24bd 87d5 29be b3a3 dcbd
00000200: bd78 d3bd b863 ff3d 4490 62bc 7cb0 2bbe
00000210: c504 5ebd 4383 6cbd 6ef2 93bd ba54 d1bd
00000220: a475 64bd 9583 803d 8f0b a43d ef59 b13c
00000230: e4ed 003e 7283 973d 19bc cc3b 8d3d c03c
00000240: e531 e7bc 608d 0b3e a9e5 403e efd0 debd
00000250: 188b 9abd 2cfd 053e 8588 1bba 35ed 273e
00000260: a5ea 32be 3aef 0abe 4932 ddba f648 1dbd
00000270: 6983 6bbd 6a99 04bd ab57 1fbd 9e82 b3bd
00000280: aa85 c43d f661 903c 5a28 3bbd fd05 aebd
00000290: ac65 f2bd 4354 c43c 18ef eb3d b4b5 9dbd
000002a0: 5f47 b93d e4f9 ef3d eca4 43bd a3a4 c4bc
000002b0: 2ab1 bdbd 6b25 9f3c 8efb 363e a507 dc3d
000002c0: 9ea7 5cbd b888 6cbd e7ae d5bd aaf1 4dbc
000002d0: 3402 b53d 847c 3abe 48cd 253d 6598 3dbe
000002e0: fb4d 00be 79fc 87bd 7150 08be f669 9c3d
000002f0: fe07 30be f179 bdbd 1b08 3f3b fe47 8f3d
00000300: 7449 433d db3b 21be c888 473d 269c 0bbd
00000310: 6523 5fbd c103 d3bb 6327 94bd 714a a93d
00000320: 1510 1d3e a329 64bd 1176 e2ba e2ab 993d
00000330: e97e 363c 27e3 d3bd 2514 123e 4ee0 00be
00000340: 256a c5bd 334b ee3d cb5b b1bd 3261 b93c
00000350: 3f6a b8bd bf45 17be c995 453d 0934 b8bc
00000360: faef 46be 64d4 8cbc a603 e4bd 7a18 37bd
00000370: 8e3b 98bd 37fc be3d 884d 49bd db4c 3dbc
00000380: da89 48bc 894f be3c e39b 49bc cc7e b0bd
00000390: c538 5ebd e283 ee3d 19f8 e6bd 7db2 f53c
000003a0: c69f 28be b2b7 263e 6253 1cbd 1966 023c
000003b0: 6820 253e b1e7 1fbb 7b59 923c f20d f13d
000003c0: becc 27bd 96d9 aebd 5c39 313d 9225 bdbb
000003d0: c542 033c 295c adbd 7d00 69bd c31b 843b
000003e0: 5c1e b8bd c191 1b3e 71a3 0f3d 3f61 f9bc
000003f0: 5cc4 6abd a83f 6a3d 220a cbbc fb75 543c
-0.0456485 -0.10101915 -0.015601116 -0.009157338 0.07324891 0.14994155 0.0052262386 -0.015166526
0.04259608 0.049354352 0.11484802 -0.007470627 0.02675556 -0.13645008 0.15668207 0.05230962
-0.0060155247 0.15700166 -0.0054573547 -0.026564613 0.104878075 -0.011000768 -0.11828586 -0.034211412
-0.13290878 0.031925753 0.06497566 -0.086674236 0.0024584462 0.02120445 0.042495843 -0.12968072
-8.921795e-06 -0.054644305 0.041766863 0.0713348 -0.020264717 0.008154506 -0.09879225 -0.10397526
-0.12390441 0.004883226 -0.1049056 0.1308778 0.08176901 0.114399545 -0.06145907 0.10289463
-0.07792691 -0.10540226 0.034122895 -0.071053356 -0.17656042 -0.04800535 0.1078704 0.01160986
0.07256775 -0.018355215 0.0644565 0.044521093 0.026631314 0.06525108 -0.14183396 -0.05598461
0.07056309 -0.13232952 0.04282635 0.008479424 -0.010277057 0.109859884 -0.0018592883 0.123600274
0.06693706 0.011089918 -0.054222696 -0.0015147758 -0.016375614 -0.11578328 0.14587466 -0.031007638
0.064019725 0.07005106 0.0028944875 0.10961985 0.05982199 0.05068027 0.044630095 -0.1805194
-0.08857696 -0.043652322 0.035908386 -0.10725402 -0.056720633 0.1594399 -0.017638866 0.06145062
-0.07705242 -0.17362824 0.081493646 -0.08880614 0.05910844 0.14689226 -0.026195556 -0.09623652
-0.11451872 0.041975755 -0.12974828 0.10575393 -0.0031464724 0.10239789 -0.099829815 0.025728967
-0.045490194 -0.054918036 -0.06700583 0.061760936 -0.025419917 0.06706743 0.02678381 -0.07807074
-0.037671663 0.17262381 -0.16562063 -0.09214236 0.089296654 -0.040207393 -0.1658536 -0.10773411
-0.103257634 0.12470192 -0.013828341 -0.16766542 -0.054203767 -0.05774237 -0.07223974 -0.102212384
-0.055776253 0.06275097 0.08010017 0.021649329 0.12590748 0.07398118 0.006248009 0.02346685
-0.028222034 0.13628149 0.18837608 -0.10879695 -0.07546061 0.13084859 -0.0005933124 0.16399081
-0.17472322 -0.1356782 -0.0016875948 -0.03839966 -0.05749837 -0.03237287 -0.038901966 -0.087651476
0.09595807 0.017624836 -0.04569278 -0.08497236 -0.118357986 0.02396596 0.11520213 -0.07700673
0.09046816 0.11717585 -0.047764704 -0.024004286 -0.09262307 0.019427022 0.17869398 0.107436456
-0.05387079 -0.057747573 -0.104337506 -0.012569824 0.08838311 -0.18211561 0.040478975 -0.18515165
-0.12529747 -0.06639952 -0.13311936 0.07637398 -0.17190549 -0.09251774 0.0029149118 0.06996153
0.047677472 -0.1574549 0.04871443 -0.03408446 -0.054477114 -0.0064396565 -0.07234075 0.08266152
0.15338166 -0.05570377 -0.0017277618 0.07503487 0.011138656 -0.1034606 0.14265497 -0.12585565
-0.09639386 0.11635437 -0.08660086 0.022629354 -0.0900464 -0.147727 0.04823855 -0.02248575
-0.19427481 -0.01719112 -0.111335084 -0.044701077 -0.07433234 0.0932545 -0.049146205 -0.011553968
-0.012239898 0.023231285 -0.012305233 -0.086179346 -0.05425336 0.116462484 -0.112777896 0.029992336
-0.16467199 0.16281012 -0.038165458 0.007958912 0.16125643 -0.0024399573 0.017864933 0.11770238
-0.04096674 -0.08537595 0.043267593 -0.005772301 0.008011525 -0.08464844 -0.05688523 0.00403163
-0.089901656 0.1519232 0.03506798 -0.030441878 -0.05731617 0.057189614 -0.024785105 0.012967582

dec_lstm.weight_hh_l0 f4 [256, 64]
00000000: 5185 11be 2886 0fbe 48a8 d1bd dc16 a33d
00000010: 214a a03d a39c bfbc aac2 f5bd 5da3 eebc
00000020: 0450 923d ebae 8dba 2f74 103e 08ec 1e3c
00000030: 4196 d0bd adbe 92bc 018e 973d 4e70 bd3d
00000040: fc21 dcbd f125 99bc 5132 94bd 3496 52bd
00000050: 4646 b43c 2c0f c53d 01c1 9ebd 87c1 8bbd
00000060: 45d8 f23d 7664 253b 486e 993c 03cf 20bd
00000070: 18a5 573d a7b3 813d af29 de3d 582b 9dbd
00000080: af4f 9dbd 1ba4 493d 92f4 363c 851f 04be
00000090: 0f8d 8e3d be94 a03c 2120 073d 2a93 883d
000000a0: 9e70 c1bc 7451 d23d 5b06 143e 5293 c2bd
000000b0: 7830 783d 7335 64bd d1c6 a23d 525e 85bd
000000c0: b888 79bb 0660 8239 1b7a 8ebc 62d9 80bd
000000d0: 377b 803c f42c 29bd b29c 90bd b09f bb3d
000000e0: 3eb8 543c 59d9 7e3d fc31 da3d 776b 9dbd
000000f0: ecf6 8dbd 5d51 13be 7bf3 eb3d d136 cabc
00000100: f38a ff3c 937a 1bbe 16ca 00bd eeac 4ebd
00000110: 121f d3bd e547 c43d f837 ba3c 63eb a63d
00000120: 8053 b6bd 7737 d53c 721d 6c3d e41e 503d
00000130: 1f5c abbc 2245 23be 2de9 efbc 0c90 313e
00000140: e472 dcbc 75c7 5e39 513f 473c 63cf f23d
00000150: bfd8 2f3e df36 91bc 634b d83d 0962 bebd
00000160: dda1 553d 0419 743b 9cf1 183e ffeb 3cbc
00000170: b070 e03d 6ba5 19bd de08 873d 1a24 a43d
00000180: 8922 b5bd 5623 03bd 783a 40bd 6b37 2fbe
00000190: e3db 1b3e a1e9 583d 528b 12be 30f3 21be
000001a0: 97b0 26bb 0140 123d 4292 6a3d ded4 0c3d
000001b0: b287 b43d 42f0 2d3d ef71 d6bd 10a2 e1bc
000001c0: 0515 bcbd d3a8 42bd 9e78 11bd 94ec 083d
000001d0: f780 a7bd 6e72 1e3e 54f7 063e a88c 3b3d
000001e0: 32b9 233d fa0f 683d 3cfb bf3d 2c57 723d
000001f0: 7518 a33d 3e6f 13be b3a1 023e 24c2 30bd
00000200: 8027 8ebd 69f3 013e 867e 09bd 083f d8bd
00000210: ef0b f1bb 6e04 1b3d 18d8 d5bd b82b a1bb
00000220: bd55 c7bd 9cf4 023e da5a 8f3c 1747 8bbd
00000230: 78a7 5d3d 3ac7 123e 4f90 92bd 7ad7 933d
00000240: 4acc e33c 76d2 6ebd b73b f13d 1be2 5ebd
00000250: 976d 103d f2a4 87bc 6ac1 9fbd 5f01 353c
00000260: 425b ea3c 4791 0ebe 1639 193d aee8 873d
00000270: c356 acbd 6111 4abd 1bf4 e8bd 1f3a 843d
00000280: d893 163e d82b 2bbd c882 7ebd 4885 963d
00000290: 5d13 5ebd 30f3 a3bc 14c3 353d 6a80 0fbe
000002a0: 93c2 0a3e e8bb 103e 3a87 263c 6033 923d
000002b0: fe9b 25be 0231 e63d 45e7 133d 2674 f03d
000002c0: 5482 c3bd 0641 553d 0cac 0fbe 900f acbd
000002d0: fcc4 8aba 2cfd 80bd 1e01 863d f76c f5bd
000002e0: 9dc3 14bd 91a7 d5bb 4a49 3dbc 6058 f73c
000002f0: 1df9 423d fd65 99bc 7fd9 cabd e84f c63d
00000300: c74b 3d3d c00e 2abe 1a31 c7bd 71be 6c3d
00000310: bcc5 90bd 8b93 fbba 5532 713d 9a0f 913c
00000320: af25 2abe 5797 0b3d 2231 df3d d9e6 0b3e
00000330: a020 83bd 3c00 803d 4ee9 253d 83c5 f93d
00000340: df99 45bd 011b c7bd 4013 07be 5c15 d7bd
00000350: 3c16 523d 2428 13be ef4c 91bd 4a9b 29be
00000360: 06e6 1abd 9c15 58bc d24f 123b 6933 d8bd
00000370: b2b7 9d3d dfb5 273e 825e c33d b657 063d
00000380: cef0 2a3d 3037 bb3d 426a c13d 7ab9 31be
00000390: e219 c8bb 906f ba3b a0b7 2fbe 8456 893d
000003a0: 79a1 0cbe 5929 803d 6ada a13d 08a5 d9bd
000003b0: d311 07be 53f9 d43d f577 3bbd d2dd 273e
000003c0: 4160 54bd a440 4e3d 66f6 2cbc c533 b3bd
000003d0: 5d5e e4bc f826 b93c c3e9 e23c 0a4f 03bd
000003e0: 560a 2cbd d812 ffbd f99e 783d fb24 913d
000003f0: a459 0ebd e949 11be 3c17 843d d9c5 d63d
-0.14211012 -0.1401602 -0.10237175 0.079633445 0.07826639 -0.02339012 -0.1200002 -0.029130632
0.07144168 -0.0010809576 0.1410682 0.009699829 -0.10184909 -0.017913187 0.07400132 0.09249936
-0.107486695 -0.01869485 -0.072361596 -0.051412776 0.022006165 0.096220344 -0.07751656 -0.06824022
0.118576564 0.0025236881 0.018729344 -0.03925992 0.05264768 0.06333094 0.10847794 -0.07674283
-0.07681214 0.04922877 0.011166709 -0.12902649 0.069604985 0.019602176 0.032989625 0.06668694
-0.02361327 0.10269442 0.1445555 -0.09500755 0.0605931 -0.055715036 0.079480775 -0.06512131
-0.0038075875 0.00024867075 -0.017392209 -0.062914625 0.015683753 -0.041302636 -0.07061137 0.09161317
0.01298338 0.062218998 0.10654065 -0.07686513 -0.06931862 -0.14386506 0.115210496 -0.024684342
0.031194186 -0.15183477 -0.031442724 -0.050457887 -0.103086606 0.09584025 0.022731766 0.08150365
-0.08902645 0.026027424 0.05764527 0.05081071 -0.02091795 -0.15944341 -0.029285992 0.17340106
-0.026910253 0.00021245873 0.012161092 0.11855962 0.17172526 -0.01772636 0.10561254 -0.092960425
0.052156318 0.0037246356 0.14935917 -0.011530875 0.109589934 -0.03751127 0.06593488 0.08014698
-0.08844478 -0.03201612 -0.04693076 -0.17110984 0.15220599 0.05295718 -0.14310959 -0.15815425
-0.0025434846 0.03570557 0.05726839 0.034382693 0.08814944 0.042465456 -0.1047095 -0.027543098
-0.09183697 -0.047524285 -0.03551542 0.033428743 -0.08178895 0.15473339 0.13180286 0.045788437
0.039971538 0.05665586 0.09374091 0.059165165 0.07963649 -0.14397904 0.12756996 -0.043153897
-0.06941128 0.1269051 -0.033567928 -0.10558897 -0.007356159 0.03784602 -0.10441607 -0.0049185418
-0.0973315 0.12788624 0.017499376 -0.06800669 0.05411479 0.14333811 -0.07156431 0.07218833
0.027807374 -0.05830618 0.11778968 -0.05441485 0.035260763 -0.016558144 -0.07800563 0.01104769
0.028607968 -0.13922606 0.037407957 0.06636177 -0.08414986 -0.04933298 -0.113746844 0.06456398
0.14704835 -0.04178986 -0.06213644 0.0734964 -0.054217685 -0.020013422 0.044375494 -0.1401383
0.13550787 0.1413418 0.010164076 0.07138705 -0.16172788 0.11239816 0.036109228 0.117409036
-0.095463425 0.052063964 -0.14030474 -0.08401406 -0.001058727 -0.06298289 0.06543182 -0.11983674
-0.036319364 -0.0065202196 -0.011553118 0.030193508 0.047600854 -0.01872539 -0.09904765 0.0968321
0.046214845 -0.16607189 -0.09726162 0.057798807 -0.07068965 -0.0019193752 0.05888589 0.017707635
-0.16615938 0.034079876 0.10898043 0.1366228 -0.06402707 0.06250045 0.0405057 0.121958755
-0.048242446 -0.097219475 -0.13190937 -0.10502121 0.051290736 -0.14370781 -0.07094752 -0.16563144
-0.037817024 -0.013188746 0.0022325409 -0.10556681 0.07701053 0.16377972 0.0953951 0.03279849
0.041733555 0.091413856 0.09444095 -0.1735591 -0.006106601 0.005689569 -0.17159891 0.06705955
-0.13733472 0.062578864 0.07902987 -0.1062718 -0.13190393 0.10399117 -0.045768697 0.16393211
-0.051849607 0.050354615 -0.010556793 -0.08750109 -0.027877027 0.02260159 0.027699357 -0.0320578
-0.042002045 -0.12454766 0.060698483 0.070871316 -0.034753457 -0.1418835 0.06449744 0.10486955

dec_lstm.bias_ih_l0 f4 [256]
00000000: 3721 fd3c 3a65 42bd 8494 3a3d 7824 2a3e
00000010: 540d 9f3d 8600 9bbd 9327 c9bd 69b0 323e
00000020: 4884 02bd 808d b83c 871a c23d b997 67bd
00000030: a4df eb3d 7c89 463d 31cc 263c 9ac0 983d
00000040: 0827 e13d 570f 81bd 8ed2 173e b24e 043e
00000050: 1d9b 033d 968e 7dbd 89e4 993d 9584 083e
00000060: 83d6 b8bc 93ba 19bd 69b6 82bd 120f bb3d
00000070: dd73 d3bc 9581 f6bd ef83 713d 1eff b63c
00000080: a42a fd3d 2c26 963d 5051 083e 8bb7 03bd
00000090: 38f8 103e 4a4d f7bc 9373 f43d 8ea0 b5bd
000000a0: d4e5 4a3c ce39 393e 7266 b03d 51c4 d1bd
000000b0: ad6c 2b3c 84cb 3a3d a42e f23d 6a84 e7ba
000000c0: 8a41 15bd 3153 af3d e8d2 c03d faab ca3d
000000d0: 0d5e 2c3e f28e 903d b197 e03d c38e 4b3d
000000e0: 5aed 91bb 8604 0f3e 1c91 a83d e021 03be
000000f0: d462 2e3d a2b5 1c3e 1fa8 ad3d d5f0 b03d
00000100: d08f dcbc 245b b2bb 1e36 033a 7de5 9b3c
00000110: 71c3 65bd 02be ddbd 3686 d43d 2a4e f83d
00000120: 3eac 8bbd 27ad b23d 8c75 ff3c f4a5 9e3d
00000130: 3f93 f2bc 6670 693c 7bc5 423c 892a ac3d
00000140: c914 243d 3c68 f63d bc4c 043e 9cc2 9b3d
00000150: dfa9 efbd d7a8 c33c 11e8 a73c fabb 273d
00000160: b827 b23d e1e6 e5bc 58a7 dfbc f85b bc3d
00000170: 6a42 f43d 1dcb afbc 4150 283d 7bda b13d
00000180: 7302 053e eac6 a13d e713 083e c5b4 b4bd
00000190: 585f 393d 792d 223d 7688 a43d d924 b73d
000001a0: 76e4 bf3d 02af e03c 5b64 58bb 6d14 ad3d
000001b0: 17fe 7d3d 5284 a83c 7990 2e3e 0a3c 17bd
000001c0: 2415 563d 7f2c 9f3d 63c0 523d a1cc ae3d
000001d0: 0ff0 f23d 89c7 e43c 9f28 12bd dfd8 c73d
000001e0: 8d9f bf3d 159a 8cbd 1d1d a13d 9812 0bbe
000001f0: 766f 66bd d282 ba3d 3589 b43d ede6 c73d
00000200: cab8 af3d 990b 0abe 7db9 06be 7e5b 0f3d
00000210: bdfa 8bbd 77da 873d cb8d 72bc 8d4e 9a3d
00000220: ad1d f5bd 67dc c93d c30b cd3d a2f9 783d
00000230: 5695 dbbc c1d7 98bd 3aec 293e d960 a53d
00000240: ff7b bfbd 0676 0fbd 4b53 12bd d26a 2e3b
00000250: 92c4 b73d a17c 9b3d 7099 873d e1b4 c5bd
00000260: 80f5 b63d 2291 8ebd 12b6 b33d f2ba 8dbd
00000270: 4508 853d 5d19 463d d80b cb3d cc5f f83d
00000280: 3ddf 6f3d 574b f1bc 682b 8d3d b072 8fbd
00000290: 6927 8b3d 4045 173e 5e19 44bd 65ac 03bd
000002a0: d21d 42bc 881b 5abd 929e 9c3c 6469 b1bd
000002b0: b62f c53c 8897 413b 67f2 0cbd 8fa1 8b3d
000002c0: 43a3 a0bd 5cb3 8e3d dfcc 0dbe 71c3 26bc
000002d0: a754 7ebd 42e5 96bc f308 42bd 373d 36bd
000002e0: e35e b83d db81 01be 8fce 953d 7ca3 bc3d
000002f0: a3ac b73d 8dee 97bd 4549 9dbc 5701 a2bc
00000300: 5050 db3c e92a 8bbc 510e db3d f903 0b3d
00000310: 79ae 693d 24f0 b83d 413d cbbd 0eee 4c3d
00000320: c4a2 0c3e 5292 d73d 4a29 65bd 9224 f4bd
00000330: 15f2 c53d 8112 783d fa87 01bd 45ce a8bc
00000340: 088d df3d 42aa 263e c8be ed3c 4317 203e
00000350: a7f6 aabc ca25 533d a0bb d1bd 3294 6fbd
00000360: 30f6 043e 5ee2 cbbb 8977 9ebd e68c a53d
00000370: 72a4 40bd fff8 80bd 34e1 773c 78d6 3a3d
00000380: 98ec ca3d ab43 83bd 3d71 773d 1b69 2c3d
00000390: cd5d 5d3d 063c 0c3e eee3 033e ed94 06bd
000003a0: 78da 1c3e 4315 ae3c 0fbc 863c b2d5 c13d
000003b0: 4c0b 043e 4492 99bd c709 013e 11d9 903b
000003c0: de31 df3c 3b4e 70bd e74b 9c3d b7b0 ef3d
000003d0: 69c0 3e3d c0db 49bb 6d91 30bd d16f 763d
000003e0: 0120 9fbd 05fa 263c 8ce3 3d3e 0253 81bc
000003f0: 8cb9 a03d e4ae c83d 24ed 5d3d 2377 ddbd
0.030899627 -0.04745982 0.04555179 0.16615474 0.07766214 -0.07568459 -0.09822001 0.17450108
-0.031864434 0.02252841 0.09477716 -0.05654118 0.115172654 0.04847096 0.010180519 0.07458611
0.10993773 -0.06301754 0.14826414 0.12920645 0.03213035 -0.06190356 0.07514293 0.13331826
-0.022563225 -0.037531447 -0.06382448 0.09133734 -0.025812084 -0.120364346 0.058963712 0.022338446
0.12361649 0.073314995 0.13312268 -0.032157462 0.14157188 -0.030188221 0.119361065 -0.08868514
0.012383897 0.18088457 0.0861329 -0.102425225 0.010462922 0.045604244 0.11825302 -0.0017663364
-0.036439456 0.085607894 0.09415227 0.09896083 0.16832753 0.07058515 0.10966433 0.049696695
-0.0044533433 0.1396657 0.082308024 -0.12805891 0.04257472 0.15303662 0.08479332 0.08639685
-0.026924044 -0.0054429937 0.00050053175 0.019030327 -0.05609459 -0.10827257 0.10377161 0.121242836
-0.06819962 0.087244324 0.03118398 0.07746497 -0.029611228 0.014247989 0.011887903 0.084065504
0.040058885 0.120316 0.12919897 0.07605478 -0.11702322 0.02388422 0.0204964 0.040950753
0.08698982 -0.028064193 -0.027301475 0.09197229 0.1192673 -0.021459157 0.04109216 0.0868425
0.12989216 0.07899268 0.13288842 -0.088235416 0.045256943 0.039594147 0.0803384 0.08942575
0.09369747 0.0274272 -0.00330188 0.084511615 0.062009897 0.020570908 0.170473 -0.036922492
0.052266255 0.07772159 0.051453006 0.085351236 0.11862194 0.027927177 -0.03568327 0.09758162
0.09356604 -0.06865326 0.07866881 -0.13581312 -0.05625864 0.09106983 0.08815233 0.097608425
0.085801676 -0.13480987 -0.13156696 0.034999363 -0.06834934 0.06633466 -0.014804314 0.075345136
-0.11968551 0.098564915 0.10012009 0.060784943 -0.026804607 -0.07463027 0.1659402 0.08075113
-0.09349822 -0.035024665 -0.035723966 0.0026613963 0.0897304 0.075921305 0.06621063 -0.096536405
0.08933544 -0.06961276 0.087749615 -0.069204226 0.06495718 0.048364032 0.099143684 0.12127647
0.058562506 -0.02945487 0.06893045 -0.07004297 0.06794626 0.1477251 -0.047875755 -0.03214683
-0.01184793 -0.053248912 0.019118581 -0.0866268 0.024070602 0.0029539783 -0.03441086 0.06817924
-0.0784364 0.06967804 -0.13847683 -0.010178433 -0.06209245 -0.018419866 -0.047371816 -0.044491973
0.09002473 -0.12647192 0.073147886 0.0921087 0.08968475 -0.07418547 -0.019199977 -0.01977603
0.026771694 -0.016988235 0.1069609 0.033939335 0.057051156 0.09030178 -0.09923793 0.050031714
0.13733965 0.10525955 -0.05594758 -0.11921038 0.09665314 0.06056452 -0.031623818 -0.02060617
0.109155715 0.16275886 0.029021636 0.15633874 -0.020869566 0.05154971 -0.10240865 -0.05849094
0.12984538 -0.0062220534 -0.07737643 0.08083515 -0.047031827 -0.06297492 0.015129376 0.04561469
0.09908408 -0.06409391 0.060410727 0.042092424 0.054044534 0.13694772 0.12879917 -0.03285687
0.15317714 0.021250373 0.016447095 0.09464587 0.12894934 -0.07498601 0.12601386 0.0044204076
0.027245458 -0.058668356 0.07631665 0.117036276 0.046570215 -0.0030801147 -0.04310744 0.06016523
-0.07769776 0.010191445 0.18543833 -0.015786652 0.0784789 0.09798983 0.054181233 -0.10813739

dec_lstm.bias_hh_l0 f4 [256]
00000000: a29d 123d a020 3f3d bf42 753d 2cde 5ebb
00000010: 1e67 1f3e ec0f 8bbd d7c5 6d3d a5e0 0d3e
00000020: 201d 96bd 36e9 5ebd bf3b b0bd 5903 843d
00000030: 521d c23c 8fb4 7cbc 96d9 b8bd c12a 35bd
00000040: 4914 27bd 0915 f63d 0726 063d adac 103e
00000050: df99 9b3d 41f2 ae3d fd9f dd3d fa5a 793c
00000060: 888b 3a3e 5feb 093e cc37 1f3c e5fe 773d
00000070: fbcf 1d3e f576 24bd 11ef 8cbd 215e e33d
00000080: 4e8a 763d 5428 d5bd e056 f73b 516f 31bd
00000090: 0dbc 223e 2412 a53a 34b7 60bd 3fe6 7b3c
000000a0: 225a 67bd b00e e53d d30d 5dbd 3d15 bb3d
000000b0: 1810 d13d 1f3c 1d3c 76d0 2e3d 4590 9cbd
000000c0: 669d 9fbd e54f 0e3e bb9f 7fbd bed0 93bd
000000d0: 4cdb ae3d c5ec 2c3e 6fac 8bbd 5f6a 3a3e
000000e0: 1305 3c3d 9f8c 103e 033d 953d e738 00be
000000f0: 7b3c bc3c 8895 663c 45f7 093d 339c 37bb
00000100: 048c e63d 03eb c0bc 66fb b0bd c004 3a3d
00000110: e83f 103e 20ec 16bd f89c 8cbd 69d2 313d
00000120: 22b3 1e3c b5df 4b3c 0238 87bd af66 373d
00000130: 441b af3d 9db1 50bb f513 13bd fd44 6d3d
00000140: 7d78 d2bd 6a74 c23d 9256 d23d 7976 8fbd
00000150: 88ac d9bd 6423 093e 70b5 60bd 2a17 d93a
00000160: 23fb a43d fe90 6bbb 72f7 fd3c c7c5 0fba
00000170: 1756 a8bc b11b f73d 34b4 eebd 64db 15bd
00000180: 92a6 8abd 5e56 d03d c39b 053e 6060 7b3d
00000190: 7246 c0bc c6ae 073d 5787 2f3e 57f6 4e3d
000001a0: 5171 97bd b6a9 7c39 bac9 8d3d e99f cb3d
000001b0: 3de7 143e 9304 e4bc 0582 5bbc b3b0 d83d
000001c0: fb81 4d3d b4bd 65bc b578 bbbd 873c a23d
000001d0: 87a1 aabd dfdf 403d fb63 d2bd b194 823d
000001e0: fbde c1bd 47e5 133e d8eb 323d 822d 87bd
000001f0: a1e3 1cbb 3a4d 54bd e1e9 a63d e703 323d
00000200: c245 48bd 1bb0 f0bc 48dc 04be 689f ce3d
00000210: 4116 2dbd 7dcc 193e 4301 dcbd 37eb e0bd
00000220: 054d fbbd 40c4 9c3c bd44 2e3d 5d5b 073e
00000230: 3178 d8bd a18b d7bc 63c3 193d 405d b23c
00000240: 3f12 f43a 51ed a23d d175 57bd 630e e2bd
00000250: 4241 db3d fdae 3dbd 9b2c 353d 5543 b1bd
00000260: 7763 efbc 1204 d2bd 0b78 3f3d dd9a 4a3d
00000270: 2ee4 ef3d 62dd 033e d0d1 e03d e888 c73d
00000280: 3ba2 01be dae5 f13c 222a 31bc 3a50 d2bd
00000290: 1322 453c df14 6ebd a2ef 9bbd ab46 ebbd
000002a0: 318d 04be 9455 ac3d d71b b63d b140 eabd
000002b0: b0d0 d4bd 2005 fe3d d714 b63c 131e 963d
000002c0: 87aa 943d 9817 ab3d 6ac5 a63c f7d7 9ebd
000002d0: 44ce 2abd 4c62 033d 4747 013e 33c7 d93d
000002e0: 29f1 d53c c180 8ebd bd61 c73c 0056 aa3d
000002f0: 9083 ba3c a7c0 fabc ee0d d53d c098 613d
00000300: 88df 91bd 26e7 3cbc d5f2 dcbd 72f9 c93c
00000310: 3720 eabc 245c df3d 6142 f63d c442 9a3d
00000320: 5767 1e3e cfcc 40bd ea4e 723d 33bb 853d
00000330: 66d7 123e 0b5e 293e 7c05 4cbd 920f 873d
00000340: 07f8 303d 5003 86bd f50e 6f3b 32d3 13bd
00000350: 680c 4c3b 961c 3b3e b9d3 47bd 80e7 863d
00000360: 36eb d7bb 15fc c13d f498 67bb 204b 3d3d
00000370: 7650 1f3e e86b 7c3c da67 15bd 059f 653d
00000380: 4d0f 023d 0b0e 943d b2ef a2bc a166 9e3d
00000390: e936 b6bc f83e 86bd d36d 19bc 579a bd3c
000003a0: dc89 033e f4de 5d3d 4b48 853d 1748 4e3d
000003b0: c0d6 363e ec92 8a3d d60a ca3d 9e35 213d
000003c0: 835f 4e3c e425 213e 6d6d 96bd c94a 23bd
000003d0: a056 4e3d 82d6 14bb e52a cdbd 89be dfbb
000003e0: e7b2 963c f647 393d 2742 ac3d b9cc 41bd
000003f0: 417c 8c3c db0f 14bd 101a c5bc 8b30 b03d
0.03579486 0.046661973 0.059878107 -0.0034006936 0.1556668 -0.06790146 0.058050003 0.13855226
-0.07329774 -0.054421626 -0.08605146 0.06445951 0.023695622 -0.015423908 -0.09025876 -0.044230226
-0.04079083 0.12015731 0.03275111 0.1412837 0.07597708 0.085423 0.10821531 0.015219444
0.1821729 0.13468693 0.009717893 0.06054582 0.1541137 -0.04015251 -0.06881536 0.11101938
0.06019049 -0.104080826 0.007548198 -0.04331905 0.15892048 0.0012593907 -0.054862216 0.015374719
-0.05648244 0.11184442 -0.053968262 0.0913491 0.10208148 0.0095968535 0.042679273 -0.07644705
-0.07793693 0.13897665 -0.06240819 -0.07217549 0.08537921 0.16887195 -0.068199985 0.1820464
0.045903277 0.14116143 0.07287028 -0.12521707 0.022978058 0.014073737 0.03368308 -0.0028016686
0.112571746 -0.023549562 -0.086417004 0.045414686 0.14086878 -0.03684628 -0.06865877 0.043413553
0.009686263 0.012443473 -0.066024795 0.04477566 0.085501224 -0.0031844147 -0.035907704 0.05792712
-0.102768876 0.094948605 0.10270418 -0.07005019 -0.10628611 0.13392407 -0.054860532 0.001656269
0.08055713 -0.0035944576 0.03100178 -0.0005484488 -0.020548863 0.120658286 -0.11655465 -0.03658618
-0.06770052 0.10172723 0.130477 0.061371207 -0.023471091 0.03312566 0.17141472 0.050527897
-0.0739466 0.00024095815 0.06923242 0.0994261 0.14541335 -0.027834212 -0.013397698 0.10580578
0.050172787 -0.0140222795 -0.091538824 0.07921701 -0.0833159 0.0470885 -0.10272976 0.06376017
-0.09466358 0.14442931 0.04368195 -0.06600477 -0.0023939388 -0.05183146 0.081500776 0.043460753
-0.04889465 -0.029380849 -0.12974656 0.10088998 -0.04225755 0.15019412 -0.10742428 -0.10982364
-0.1227055 0.019136548 0.042546023 0.13218446 -0.105698 -0.026311697 0.03753985 0.02177298
0.001862116 0.07955421 -0.052602593 -0.110379 0.10705806 -0.04630946 0.044231992 -0.08655421
-0.029222233 -0.102546826 0.04674534 0.049464095 0.11713444 0.1287742 0.109775186 0.0974291
-0.12659542 0.029528547 -0.010813268 -0.10269208 0.01203205 -0.058125373 -0.07614066 -0.11488088
-0.12944485 0.0841476 0.08892029 -0.1143812 -0.103913665 0.12403321 0.022226734 0.07329955
0.07259088 0.083541095 0.020357806 -0.07756036 -0.041700616 0.032076165 0.12624846 0.10633697
0.02611597 -0.069581516 0.024338597 0.083171844 0.022767812 -0.030609442 0.104030475 0.055077314
-0.07122713 -0.011529719 -0.10788504 0.024655078 -0.028579814 0.10906246 0.120243795 0.07532266
0.15469109 -0.04707032 0.05915729 0.06529846 0.1433998 0.16539781 -0.049809918 0.06594767
0.043205287 -0.065436006 0.003647742 -0.036090083 0.0031135324 0.18272623 -0.0487859 0.06587124
-0.0065893186 0.09471909 -0.003533897 0.046214223 0.15558037 0.015406586 -0.036475994 0.056059856
0.031752873 0.07229241 -0.019889686 0.07734419 -0.02224298 -0.06554979 -0.009364563 0.023144884
0.12845558 0.054167703 0.065079294 0.05036172 0.17855358 0.067663044 0.09865348 0.039357774
0.012596014 0.1573711 -0.0734509 -0.039866243 0.05037558 -0.0022710864 -0.10017947 -0.0068281335
0.018395854 0.045234643 0.08411055 -0.04731438 0.017149093 -0.036147933 -0.02406028 0.08603009
